moudlerec.pth (torch, 587463 bytes, 10 tensors)

weight f4 [32, 3, 5, 5]
00000000: c3ca c5bd 9eb7 ec3d 9587 de3d 3ebc e13d
00000010: 0c5f 813d cdd2 3b3d a745 10bd 1fde fa3c
00000020: 7d9d dc3c f861 5ebd 5302 af3d 4a67 c03d
00000030: beef 3a3d d3f8 9d3b f333 cbbb c1f0 57bc
00000040: af87 d83d f756 053e 6bd7 ef3d 2a83 d13d
00000050: 7e6c b33d 1146 7f3c 1f41 15bd 8c41 8ebd
00000060: a86b cf3d b525 47bd 2b84 c23d 2193 2a3d
00000070: 76ce d9bb e4ca 9d3c 4161 a33d d54a bdbd
00000080: 2c21 8cbc a3dc 6fbb fe6a 493b c246 5dbd
00000090: b190 8ebd 459c 1f3c 5d5a b7bd 05f1 72bd
000000a0: 3811 9a3d b5d9 2dbd 603f 9fbd 96f9 9dbd
000000b0: 6786 e73d 2026 e8bb 0272 363d 1846 d53d
000000c0: d05a 393d 9db6 4fbd ee92 f2bd 455d 88bc
000000d0: 7bbb c8bc aee4 a53d 0b39 5c3b a84d 3f3c
000000e0: 7865 0cbe 3de0 7fbd 7b7e a5bc 7532 3f3a
000000f0: 95e3 373d 712d 5b3d 5734 99bd 1fe3 ae3d
00000100: c4c9 91bd 10e1 adbd 5a10 a9bd 888d b2bd
00000110: d24c 76bd 5d95 77bb b5d1 cabd a41f 3abd
00000120: af8e 203c 9c48 56bd 607c 353b 3180 643d
00000130: 3d90 94bd f5dc 453d 9faf 6cbd 6f1f 173b
00000140: c1ee c3bd a810 1e3d 24cd a73c a290 debd
00000150: 0bbe 983d 5086 8f3d ee87 533d 1c67 3c3d
00000160: 84de b83b 1d23 a8bd 85ac 523d 960b 4bbd
00000170: 4649 34bd 8579 013c d147 433c bb0a c43a
00000180: 4a5c b23d 8d2a a0bd 2020 cdbd 3a65 813c
00000190: 6a7f 823d 8960 35bd 4755 d0bd ba2e 87bd
000001a0: 9a88 c7bd 60f2 9b3d d16f cf3d a4d9 04bd
000001b0: 4069 b43d f673 a53c 6dea b03d f377 b33d
000001c0: a89f 3e3d 7964 ad3d 2a55 a93d 5dee ef3c
000001d0: 5262 933d 6694 d3bd c369 0c3d 8596 5abd
000001e0: 5f8f c43c 7911 863d c17e 6d3c 4a11 36bd
000001f0: cd93 433d 7159 8e3c 17d6 6bbc dc5a 913c
00000200: 1d46 ecbb 4cba bb3c 29aa b9bd ba56 1f3d
00000210: feb4 9d3c 45ad a03d 0018 a53d b513 b5bc
00000220: ba67 d3bd 0888 553d 7645 c4bd 5284 f6bc
00000230: 80b4 b5bd 7e49 413d bf9f c6bd 3af3 d03c
00000240: 6af2 fcbd 2753 42bd f988 9abc 06e6 31bd
00000250: 1da5 d83c 3a42 ecbb 535c b0bd e460 00bd
00000260: c5d0 283d 2b48 953d 9cf8 10bd 520d 0e3c
00000270: 4f70 f93d d4ca 2b3d 855f 363d c146 b3bd
00000280: 73ce 34bd b68b c53d d214 803d 63d3 e3bc
00000290: 1514 473d 3ee3 bf3d 6106 2c3b 2c43 503c
000002a0: 09a6 cdbd 95a9 b13c 5550 803d 321b fc3c
000002b0: 4b2b d8bd f4fb a93d 2bf7 21bd 32a7 7f3d
000002c0: a371 a1bd eb87 eebd 82ec b7bd 6a8e b7bd
000002d0: 3a05 4bbd c640 bdbd 2464 5dbd 0036 903d
000002e0: 0c64 2bbd c240 a33d f731 9ebd 6124 3cbd
000002f0: 6486 00be 512a a23d d64a cb3d d1a6 b83d
00000300: b680 f3bc ab0b 413d fb4b debd 57ff abbd
00000310: 4e32 cfbd 3d48 fcbd e995 2ebd 738a b53d
00000320: 26db 8e3c 7aad c3bb 9591 253c c539 aebb
00000330: 3b2e ef3d 0bd6 08bb e8a9 573d 8a0f b23d
00000340: 41ac a03b d03e a43c 6a93 db3d 33b0 a13d
00000350: 7e62 23bd a0bb 82bd f560 6cbd 77ed c33d
00000360: a063 393d 45c2 08bd b867 e73d 906b 053e
00000370: 51ea a7bd d47b 8fbd 01d4 de3d c129 a3bc
00000380: 8ee0 803a 479f 843c 2942 8abd 1e80 25bc
00000390: cd8f a5bd c321 f2bd eba8 c0bd 3466 703d
000003a0: 702d bbbd 1a9b d9bd 6f16 a0bc d098 e33d
000003b0: 56a3 a73d d338 df3d 7783 e33d d9be cd3d
000003c0: 5141 a43c addd d73d aa37 acbc 713c bdbd
000003d0: 35c2 b5bc 6f2a 80bd a6d5 a53d b202 923d
000003e0: 5aa3 b93d c700 ea3d 9430 c3bd fdf5 253d
000003f0: 9948 c73d c332 1abd a5f2 4dba 58dc 5cbc
-0.09657814 0.1155846 0.10865704 0.110222325 0.06316957 0.045855332 -0.035222676 0.030623494
0.026930565 -0.05429265 0.08545365 0.09394701 0.045638792 0.004820922 -0.006201261 -0.013179959
0.105727546 0.13021456 0.117110096 0.10230096 0.087609276 0.01558067 -0.036439057 -0.06946096
0.10127956 -0.048619945 0.09497865 0.04164422 -0.0066469265 0.019261785 0.07977534 -0.09242789
-0.017105661 -0.0036600016 0.0030733938 -0.054022558 -0.069611914 0.009741847 -0.08952782 -0.059311885
0.075228155 -0.04244395 -0.0777576 -0.0771362 0.11304932 -0.007084623 0.04454232 0.1041376
0.04525262 -0.050711263 -0.11844431 -0.016646037 -0.02450346 0.08100258 0.0033603336 0.01167623
-0.13710582 -0.06246971 -0.020201912 0.00072935905 0.044894774 0.053510133 -0.07480686 0.08539414
-0.07118562 -0.08490193 -0.08255072 -0.08718401 -0.060131855 -0.0037778236 -0.0990328 -0.04544033
0.009799643 -0.05231534 0.0027692541 0.055786315 -0.07254074 0.048306424 -0.057784673 0.0023059507
-0.09567023 0.038590103 0.02048356 -0.1086743 0.07458123 0.0700804 0.051643305 0.04599677
0.0056417603 -0.08209822 0.05143406 -0.049571596 -0.04401519 0.007902508 0.011918978 0.0014956811
0.08709009 -0.07820616 -0.10015893 0.015795339 0.063719586 -0.044281516 -0.10172515 -0.06600709
-0.097428516 0.07614589 0.10128749 -0.03243412 0.08809137 0.020196896 0.08638463 0.08763113
0.04653898 0.08466429 0.08268197 0.029288465 0.071964875 -0.10331039 0.03428055 -0.053366203
0.023994146 0.065463014 0.0144955525 -0.044450082 0.047748376 0.017376633 -0.014394305 0.01774352
-0.0072105066 0.022915982 -0.090656586 0.03890107 0.019251343 0.078455485 0.08061218 -0.022104124
-0.10322519 0.052131683 -0.09583561 -0.030092392 -0.08872318 0.04718923 -0.09698438 0.025506604
-0.12350924 -0.04744258 -0.018864142 -0.043432258 0.02644592 -0.0072100433 -0.086113594 -0.031342402
0.041214723 0.072891556 -0.035393342 0.008670168 0.12179624 0.04194148 0.04452469 -0.087537296
-0.044142198 0.09645788 0.06253971 -0.027810758 0.048603136 0.09369515 0.002624892 0.0127113275
-0.10041434 0.021687308 0.06265322 0.030774686 -0.105551325 0.08300009 -0.03954236 0.06241531
-0.078830026 -0.11647018 -0.08980657 -0.0896271 -0.04956553 -0.0924087 -0.05405058 0.0704155
-0.04184346 0.07971336 -0.07724374 -0.04593313 -0.12551266 0.079182275 0.09926383 0.09016193
-0.02972446 0.047130268 -0.10854336 -0.083983116 -0.10117017 -0.12318466 -0.042623434 0.08864298
0.017438482 -0.0059716078 0.01010551 -0.0053169453 0.1167874 -0.0020879533 0.05265227 0.0869437
0.0049033468 0.020049483 0.107214764 0.078949355 -0.03988885 -0.06383443 -0.057709653 0.09566777
0.045261025 -0.033388395 0.1129908 0.13029313 -0.08198989 -0.0700604 0.1088028 -0.01991737
0.0009832548 0.01618923 -0.067509 -0.010101346 -0.080840684 -0.11822846 -0.094072185 0.05869122
-0.09139526 -0.106252864 -0.019541947 0.11113131 0.08185451 0.1089951 0.11109059 0.10046167
0.020050677 0.10540328 -0.021022636 -0.09240044 -0.022187332 -0.062580936 0.08097391 0.0712942
0.0906436 0.114259295 -0.0953075 0.040517796 0.09730644 -0.037646066 -0.0007856286 -0.013480268

bias f4 [32]
00000000: f098 d7bd 4519 40bd 38e6 a63d 3052 e73c
00000010: 0572 863d 7b4f b1bd bbdf 9a3d 9962 a63c
00000020: 5c10 72bc c3f8 283d 615a babd e87d c0bd
00000030: 7920 e4bc af7d 083e c919 1fbc 2918 99bd
00000040: a25a 123d b99a 9cbd d882 50bd 411e d7bd
00000050: c332 38bd 8341 d53c 5d0f 383d eb37 743d
00000060: 9f2e ee3c 119b 3f3d f3e0 6dbb b89e 5ebd
00000070: 6cbb be3d c0f8 a2bc 2705 24bd a376 c3bc
-0.105272174 -0.0468991 0.081493795 0.028237432 0.06564716 -0.08657738 0.075622045 0.020310687
-0.014774408 0.041252863 -0.0909927 -0.09399015 -0.027847515 0.13329194 -0.0097107375 -0.07475311
0.035730965 -0.076466985 -0.050906032 -0.10503817 -0.044970285 0.026032215 0.044936527 0.05962364
0.029074965 0.046778742 -0.003629741 -0.054350585 0.09313092 -0.019894004 -0.040043976 -0.023860281

weight f4 [32, 32, 5, 5]
00000000: ac7c 87bb eaff ac3c 4668 36bc e8f2 d83c
00000010: 4895 eb3c 69d4 3ebc a40a cbbc a47e ee3b
00000020: a77e dabc 101d cd3c 2a16 5abc def5 72bc
00000030: 1149 c0bb 2ecf 603c 6c98 29bd 52bf 78ba
00000040: 9216 08bd 3d50 89bc 42e7 38bd 42c1 cb3a
00000050: 93dd 533c f3a1 823b d608 2d3c e77b 28bd
00000060: 6df9 30bd 7c97 f33b 864d 883c 6723 943c
00000070: aa46 aabc c9da b73b ea72 00bd 29ea 543c
00000080: c0c2 b9bc b304 cc3b 0f86 77bc 85d3 fa3b
00000090: 9568 c6bc fb67 c83c 0d5a a9bc 3105 063d
000000a0: d5e6 863c fdc5 9abc 5a22 143c 7979 533c
000000b0: 1e68 febc 53ce c8bc 8b78 1abc 1265 afbc
000000c0: 8620 30bb f87f cb3b 3622 6bbc b33b 11bd
000000d0: b633 81bb c690 d7bc 6a51 05bd be1e ff3c
000000e0: afad b0bc 2841 0cbd f14b 7b3c 7270 403c
000000f0: a80b 913c 836e 84bc 302e 1f3b 8814 0b3c
00000100: 0805 763c 5268 a23c 4bea 11bd 53db 9d38
00000110: 56aa 093c 3921 583b d456 f43c c2a5 f93c
00000120: dc7b b8bc 8356 ecbc 8a71 e0bc 1c0a 21bd
00000130: 6343 9c3c 45f3 28bd 535a 03bd b12a 89bc
00000140: 444d 8abc b002 10bd 21ac dfbb 188a 823c
00000150: ce45 c7bc d124 ee3b 91b3 d23c cb8d 703c
00000160: f948 48ba eba2 d33a d28c f9bc 68f6 733c
00000170: 9f0b 21bd e1ae c03c e012 17bd b4b2 a03c
00000180: a4c6 df3c ae6b f4bc a2cc 063d 2d47 2abb
00000190: a9e8 edbc a76e 8f3c dbe8 ad3c 9d22 2b3a
000001a0: 1e80 28bc 20e6 083d 7d0f 80bb faa9 ad3c
000001b0: 9af5 023d 8830 6c3a 21fc db3a 0374 033d
000001c0: 5a64 663c 60ea bb3c ba71 eeba 17bf 8bbc
000001d0: 5b1b abbc d1f3 743c 6405 9abc bf5f c03c
000001e0: 82a5 3dbc 408a 233c 22e5 e63c 578a 023d
000001f0: e514 d5bc 6d33 d4bc 8ec1 803c 3852 69bb
00000200: 9278 bd3a 81f9 3f3b 23a4 27bc bab7 d3bc
00000210: d99a fabc 309c c23b 563c e3bb 6564 063d
00000220: 58bc ddbc 4020 0ebd 9f47 35bb 2878 cc3a
00000230: 3c9b f73c 9170 e53c 0797 14bd deb2 d03c
00000240: d884 11bd a44c 003c 3728 273c 6ff3 693b
00000250: 5ae5 0bbc e52a 47bb 4fb8 86bc 75ea 2bbc
00000260: 4cea c63c 9578 b03c a93b 1a3d ce32 173b
00000270: 10fa f33b 5eef 64bb 6a5d 0c3d 0a29 973c
00000280: 019a 2f3b 1ab1 ac3c 42b8 8bbc 1775 02bd
00000290: 1f01 7dbc eac4 a53c 58f8 1fbd 1de3 c6bc
000002a0: b572 a5bc fd60 de3c e860 00bb 9b93 b3bc
000002b0: 2e63 4f3c 89ae 7fbc b8ac e1bc 05c4 9dbc
000002c0: d46e 5a3c eec4 c73c 4b1d 1fba 4586 623b
000002d0: fe8e 35bc 4e59 beba 3af6 3d3b 9b92 b4bc
000002e0: be19 0eba 062b 21bd dc1d e43b 58df b6bb
000002f0: 9ba1 793c 4a01 31bd 7fcb 39bb 049d 27bd
00000300: eeb8 7ebc eef2 373c ebe6 0cbd cc86 23bd
00000310: cd4a 95bc 6d57 e6bc 2ee6 e3ba 8903 e1bc
00000320: 04f2 483c 00e1 fcbb 48e1 31bb 687f 2e3c
00000330: 4f3d 0d3d d2e3 b9bc b94b b6bb f83a ed3c
00000340: ef69 b83c fafe 103c 7239 20bd 6917 3a3c
00000350: ec20 bf3c 62eb 21bd 5d52 bd3c 638a 453b
00000360: 222a b33c b9d4 b0bc 64e1 5cbc d96d efbc
00000370: 6d30 20bd 1478 a1bc 9a88 38bc a680 f7bb
00000380: 0c80 133b c785 0dbc 8d0c a6bc 6fee fbbc
00000390: 35e2 e8bb ff99 24bc 7b13 8fbc 5209 12bd
000003a0: 6133 b3bc db26 b03c 5de2 ab3c ea61 6f3b
000003b0: b57f f8bb 417a b73c f536 76bc 105d bdbc
000003c0: 7616 3abc b321 f23c 5779 cabc 2cf9 453c
000003d0: 1c86 0cbd aedc a03c 52dc 2bbc 53f7 be3c
000003e0: 5299 d83c 93a1 2bbc 4ad0 acbb 89b1 b6bc
000003f0: 693d d03c ad8c 203b fe59 81bb f3aa fb3c
-0.004134735 0.021118123 -0.011133259 0.026483014 0.028757706 -0.011647322 -0.024785347 0.0072782803
-0.02667172 0.025038272 -0.013310948 -0.014829127 -0.005868085 0.0137212705 -0.041405126 -0.0009488958
-0.03322465 -0.016761893 -0.04514242 0.0015545266 0.012931245 0.003986591 0.010561189 -0.041133787
-0.04320662 0.00743383 0.016638529 0.018083287 -0.020785648 0.005610798 -0.03135959 0.012995281
-0.022675872 0.006226146 -0.015107646 0.0076546096 -0.02421979 0.024463644 -0.020672822 0.032719795
0.016467491 -0.018893236 0.009041393 0.012907379 -0.031055506 -0.024512446 -0.009428154 -0.021410499
-0.0026874854 0.0062103234 -0.014351418 -0.035457324 -0.003942932 -0.02631415 -0.032548346 0.031142589
-0.021567194 -0.034241825 0.01533793 0.011745559 0.017705753 -0.016165977 0.0024289005 0.008488782
0.015015848 0.019825134 -0.03562383 7.527196e-05 0.008402428 0.0032978787 0.02982656 0.030474547
-0.022519998 -0.028849846 -0.02739789 -0.03931628 0.019075101 -0.041247625 -0.03206856 -0.01674399
-0.016882546 -0.035158813 -0.0068259393 0.015934989 -0.024325278 0.0072675725 0.02572039 0.014682244
-0.00076402683 0.0016146576 -0.030462656 0.014890291 -0.039317723 0.023520889 -0.036883235 0.019616462
0.027316399 -0.029836502 0.032909997 -0.0025982365 -0.029041605 0.017508818 0.021229198 0.000652829
-0.010284452 0.03342259 -0.0039080963 0.021199215 0.031972505 0.0009009917 0.0016783514 0.03209306
0.014062012 0.022938907 -0.0018191852 -0.017058892 -0.020887068 0.0149507085 -0.018801399 0.023483155
-0.011575105 0.009981692 0.02818543 0.031870212 -0.02601094 -0.025903428 0.015717294 -0.0035601985
0.0014455488 0.0029293003 -0.010232004 -0.025844444 -0.030591415 0.005939029 -0.006934683 0.032810587
-0.027067348 -0.034698725 -0.0027661098 0.0015599774 0.030225389 0.028007777 -0.036276843 0.025475916
-0.03552708 0.007830773 0.010202459 0.0035698076 -0.008538568 -0.0030390557 -0.016445307 -0.010492911
0.024281643 0.021541873 0.037654553 0.0023071053 0.0074455813 -0.0034932713 0.034268774 0.018452186
0.0026794674 0.021080542 -0.017055634 -0.031849947 -0.015442162 0.020235498 -0.0390552 -0.024278218
-0.020196298 0.027145857 -0.001958901 -0.02192097 0.012657924 -0.015605577 -0.027548179 -0.019258508
0.013332088 0.024385896 -0.00060697336 0.0034564894 -0.011081455 -0.0014522464 0.0028985874 -0.022042563
-0.0005420706 -0.03934767 0.0069615673 -0.005580824 0.015236284 -0.04321412 -0.0028350053 -0.040921226
-0.01554702 0.011227353 -0.034399908 -0.039923474 -0.018224144 -0.02811786 -0.0017387324 -0.027467506
0.012264732 -0.007717252 -0.0027142335 0.010650493 0.034482297 -0.022691641 -0.005563226 0.028958783
0.02251145 0.008849854 -0.039117284 0.0113581205 0.023331128 -0.03953112 0.023110563 0.00301423
0.021870676 -0.021585809 -0.013481472 -0.029227184 -0.039108682 -0.019710578 -0.011263037 -0.007553178
0.0022506742 -0.008637852 -0.020269657 -0.030753342 -0.007107044 -0.010046481 -0.017465344 -0.03565342
-0.021875085 0.021502903 0.020981962 0.0036526867 -0.0075835832 0.022397162 -0.015027751 -0.023115665
-0.011357894 0.029557085 -0.024716062 0.012083333 -0.034307584 0.019636478 -0.01048954 0.023311293
0.026440296 -0.010475534 -0.0052738534 -0.022301452 0.025419908 0.0024497912 -0.0039474955 0.030721163

bias f4 [32]
00000000: e1b2 b73c 0221 1b3d 2250 8ebc 9a9e d33b
00000010: 086a 9fbc 21e2 b1bc e103 c5bc fb02 2cbc
00000020: 2d8f e73c e304 833c 9c76 c7bc b789 763c
00000030: 2667 113d 250f 5d39 513b 7bbc c070 b9bc
00000040: db93 d9bc eac4 7ebc 359c 923c 29b0 323c
00000050: 6041 2dbb 866c d7bc 0d79 95bc cb05 093d
00000060: 1c7d fcbb 3443 beba 5253 98bb 764d 993c
00000070: 6ee3 4339 25f5 233d 51ea 353b 0ea3 493c
0.022424163 0.037873276 -0.017372195 0.0064581158 -0.01945974 -0.021714272 -0.024049701 -0.0104987575
0.028266514 0.015993541 -0.02434855 0.015047482 0.03549876 0.00021081844 -0.015333966 -0.022636771
-0.02655976 -0.015549878 0.017896751 0.010906258 -0.0026436672 -0.026296865 -0.018246198 0.03345279
-0.007705344 -0.0014515878 -0.0046486044 0.018713694 0.00018681373 0.04002871 0.0027758072 0.012306942

weight f4 [64, 32, 5, 5]
00000000: d198 b13b 2d08 debc ad26 e9bc ae17 9ebc
00000010: d55c 8abc 27fb b23b 540b 9bbb 7dff 273d
00000020: 06e6 f03c 0647 dd3b b535 f13c 4e0c 353c
00000030: 22df a53b c206 803c 1f3b 17bb a1a8 eabc
00000040: 17ee bd3c 6ca4 8fbc 942b 673c f990 483c
00000050: d4ab 143c 6f8b c93c 30c5 dcbc b14e cfbc
00000060: 0daf d6bc c848 e03b 72f3 da3c e837 cc3b
00000070: 9e74 98bc eeee e7bc 55b6 4abc 4d7d 543c
00000080: 3060 ebbc 7b0b 31bc cf39 413c 051c 09bd
00000090: 8fb5 efbc 4e3c 13bc 2444 44bc 803f bc3c
000000a0: 475c 29bb f76e de3c 8eaa b33c 1e3c c6bc
000000b0: 7a89 ef3b 627d 2a3c 2c8b a93c e31c d6bc
000000c0: 9ddf 993c 8f25 92bc f5f5 e9bc 1c9d 503c
000000d0: 9ef8 b73b 49fa 8e3c 39ab e6bb 4c9c 4d3c
000000e0: 05ff 27ba b1b9 113d 003f 1a3c 326b e3bc
000000f0: 41d8 2ebc bda2 cb3c a1ef 923b c4c2 da3b
00000100: 14a9 b4bc e728 0abd a193 3cbb 2928 02bd
00000110: 4747 60bb 28b4 3dbc 1644 093d 6052 02bd
00000120: a66a 0c3d a2e5 ff3b 3580 6dbb 8afd cc3c
00000130: 53bb 283c 10ff e5bc 8548 49bc 9d80 d23c
00000140: 154d b2bc e00d c73b 83e5 5cbc 6937 253c
00000150: f898 c6bc a06f e1bc a99b d23c 075d f9bc
00000160: 961b cc3b 9a8d 2bbb 693a cfbc 62b2 bf3c
00000170: fe62 7a3c caa2 7f3c a682 273d 9045 85ba
00000180: 01e5 b93c 339a da3c 4ec6 1d3c df9e 84bc
00000190: d477 b93b 31bc dfbb a014 823b c0d4 54bc
000001a0: aec1 0abd e3cb b8bc dee3 f5bc c253 b8bc
000001b0: b23e d73c e25c 053d 1f55 55bc f5b1 0eba
000001c0: c446 84bc 3196 b63c 6c01 18bd af0e ce3c
000001d0: b901 483c 8abc 353a aa11 aa3c 3064 68bc
000001e0: c770 ea3a 6e72 fdbb 8101 89bc 18fb ffbb
000001f0: 0f8e c33b 4f6e b5bc d3cd 4ebc 12ae a8ba
00000200: c37c 983c 9f31 90bc 44d2 a5bc 7460 9bbc
00000210: 2060 2bbd 2f06 2abd 71c7 13bd a62e 433c
00000220: 42f2 1cbd 860a 2e3c c93e 36bd feaf 973c
00000230: 0296 8b3b 95b4 1ebd 639c d5bb e149 32bc
00000240: a490 0b3d e738 34bc 1ebe 6d3c 2e53 b7bc
00000250: fe71 373c d973 15bc 7ee5 e7bc 180d d53c
00000260: 074e 013d 58a4 dcbc bf34 06bd 4b44 b7bc
00000270: 4c11 543c 2e2f df3c d311 b23b 0139 263b
00000280: d986 ca3b c9c7 95bc b91f cb3c c530 77bb
00000290: 9ee3 8d3c 7ea7 253d de60 aabc a1b2 f43c
000002a0: 4746 8fbc 6030 1f3d c238 c23c 00b6 c13b
000002b0: f942 a13c 64d2 e53c 0ed5 cd3c 1fb4 75bc
000002c0: 8f8d 963c ce8f cfbb 4d6b 83bb b09a 08bd
000002d0: c650 b83c 5d25 ba3c 776a 48bb c0d4 b6bb
000002e0: a120 9dbc 04ea 6c3c 0a32 0cbd 3ade c13c
000002f0: 5435 0dbd fadf 05bd 2515 8bbc b110 3139
00000300: 27bd f63c 20a1 953b bf31 2a3c 2aca d23c
00000310: 5ffd da3c 9ced 4a3a 7368 4cbc b0e8 bbbc
00000320: 46d6 1c3b c8a0 c7bc a649 b4bc ce7f 01bc
00000330: 6a39 213c c1bb b2b9 2c2f 55bb 27c7 bebb
00000340: 704a 30bc 1b65 f8bc 20b9 2dba b16a 4b3c
00000350: c150 ef3c ffaf e03c aab3 1cbc 9b2a a3bc
00000360: f6d8 c9bc c418 123c 83a0 b93c a4cb 183d
00000370: 2c2a 9b3c 4d95 7fbc 9f4a 6d3c 3752 f4bb
00000380: 469e db3b 6789 af3c 7180 173c 7a5f acbb
00000390: 3e9d a63c 7b9a 7cbc bd90 23bc 93bf b23c
000003a0: d8f5 30bd 0155 b73c f5d6 d2bc 0777 3bbc
000003b0: 5c78 51bc b633 05bd 2f20 e93c 429f 09bd
000003c0: 9bee d0bc 8e10 8fbc 5bbf 063d 8cc7 a43b
000003d0: 22f0 a1bc e2ba 033c 7a7a 23bb 6cd6 ee3c
000003e0: 0cf0 e03a a9bd 1fbc d744 32bc cb27 803c
000003f0: 9056 823c 9818 2dbc e57e 05bd a285 3bbc
0.0054198285 -0.027103508 -0.028460825 -0.0192984 -0.016889969 0.0054620686 -0.004731575 0.041015137
0.029406559 0.0067528514 0.029444555 0.011050297 0.005062 0.015628222 -0.002307601 -0.028644862
0.02318482 -0.017534457 0.014109511 0.012241595 0.00907417 0.02460262 -0.026949495 -0.025306078
-0.026206518 0.0068446137 0.026727412 0.0062322505 -0.018610295 -0.028312173 -0.012372573 0.012969327
-0.02873239 -0.01080596 0.011793568 -0.033473987 -0.029261379 -0.008986546 -0.011979137 0.022979498
-0.0025842355 0.027152522 0.021931913 -0.024198588 0.0073100897 0.01040587 0.020696245 -0.026136821
0.018783385 -0.017840175 -0.028559664 0.01273277 0.0056143543 0.01745333 -0.0070394543 0.012549471
-0.00064085453 0.03557748 0.009414434 -0.027761076 -0.010671676 0.024857873 0.0044841324 0.00667605
-0.022053279 -0.033730414 -0.0028774517 -0.03177658 -0.0034222172 -0.011578597 0.033512197 -0.03181684
0.034281395 0.007809357 -0.0036239747 0.02502324 0.010298568 -0.028075725 -0.012285356 0.025696093
-0.021765271 0.006074652 -0.013482454 0.010084012 -0.024242863 -0.027519047 0.02570899 -0.030439867
0.0062288744 -0.002617693 -0.025296407 0.02340049 0.015282391 0.015602777 0.04089608 -0.0010167826
0.022692205 0.026684856 0.009629799 -0.016189037 0.0056600366 -0.006827854 0.003969744 -0.012990177
-0.033876114 -0.022558158 -0.030015882 -0.022500876 0.026275013 0.032559283 -0.013020783 -0.0005443388
-0.016147025 0.022288414 -0.03711073 0.025153486 0.012207442 0.00069326966 0.020760376 -0.014184043
0.0017886393 -0.0077345883 -0.01672435 -0.007811915 0.0059678624 -0.022147326 -0.0126223145 -0.001286926
0.018614179 -0.017601786 -0.020241864 -0.01896689 -0.04183972 -0.041509803 -0.036078874 0.011912977
-0.038316973 0.010622626 -0.04449347 0.018516537 0.0042598257 -0.038746435 -0.006518887 -0.010881872
0.034073487 -0.010999895 0.0145106595 -0.02237853 0.011196611 -0.0091218585 -0.028307673 0.02600722
0.031568553 -0.026933834 -0.032765146 -0.022371432 0.012943577 0.027244177 0.0054342537 0.0025363567
0.006180626 -0.018283742 0.0247954 -0.0037718278 0.01732045 0.040442936 -0.020798143 0.029870333
-0.017489566 0.038864493 0.023708705 0.0059115887 0.019685255 0.028054424 0.025126006 -0.0149965575
0.018378047 -0.0063342815 -0.004010594 -0.033350646 0.022499453 0.022722894 -0.0030581036 -0.005579561
-0.019180598 0.014460091 -0.03422741 0.023665536 -0.034474686 -0.032684304 -0.016977856 0.00016886253
0.030119492 0.0045663267 0.010387837 0.025731165 0.026732145 0.0007741095 -0.0124760745 -0.022938102
0.0023931428 -0.024368659 -0.022007775 -0.007904006 0.009840349 -0.00034090693 -0.0032529337 -0.0058220807
-0.010759935 -0.030321648 -0.0006627012 0.012415574 0.029213311 0.027427671 -0.00956432 -0.019917777
-0.024639588 0.008917037 0.022659546 0.03730358 0.018941008 -0.015599561 0.014483123 -0.00745609
0.0067022173 0.021427823 0.009246931 -0.005260405 0.02033865 -0.01541769 -0.009983239 0.021819865
-0.043203205 0.0223794 -0.025737265 -0.011441953 -0.012785044 -0.03252002 0.02845773 -0.033599146
-0.025504401 -0.017463949 0.032897335 0.0050286707 -0.019767825 0.008040162 -0.0024944828 0.029154979
0.0017161383 -0.009749808 -0.0108806705 0.015643975 0.015910417 -0.010564946 -0.03259172 -0.011445435

bias f4 [64]
00000000: 334f d8bc 4942 763c e28e 1e3b 54b8 bd3c
00000010: d769 cebc dbc5 75bb eb10 c33c a288 15bc
00000020: 9ba1 213d 0776 aebc e327 b3bc b76f 80bc
00000030: 0f65 01bd f3d6 1c3c 1a85 18bd b045 e23c
00000040: fc80 b23c f3d4 a23b 0ac8 633a 67a1 12bc
00000050: 93c3 123d e6c4 bc3c 319f dcbc 1b91 113c
00000060: 2e55 17bb 01f6 fabc bd9f aa3c 8de4 f8bc
00000070: 45a1 28bd 9dcb b33c 49ff 143d 7645 863c
00000080: 6e89 a3bc 1d98 46ba 7d12 0ebd 13b7 98bc
00000090: 10e5 893b 2035 743c dab2 c9b9 dbce 01bc
000000a0: dc92 893c df3b 0c3d 5a59 26bd 08ca cbbb
000000b0: 10d3 d0bc 3918 113c 584b 903c 951f d5bc
000000c0: 08fa a93c a136 a13c cc9c 23bb be76 55bc
000000d0: 2af6 d8ba 3307 f13b 1a44 303c 33f4 0e3b
000000e0: a251 c33c 9c8a 42bc 6e57 dabc f3c2 10bd
000000f0: 7c66 b6bc a7f5 e63c 1ebe ab3b ff0e 7abc
-0.026404953 0.015030452 0.0024194052 0.023159184 -0.025196953 -0.0037501964 0.023811778 -0.009126814
0.03946076 -0.021296514 -0.021869605 -0.01567827 -0.031590518 0.009572732 -0.03723631 0.02762112
0.02179002 0.004969233 0.0008689171 -0.008949614 0.035831045 0.023043107 -0.026931377 0.0088846935
-0.0023091543 -0.030634882 0.020828122 -0.030382419 -0.041169424 0.021947676 0.03637627 0.016390543
-0.019962993 -0.0007575767 -0.0346856 -0.018641984 0.0042082146 0.014905244 -0.00038470962 -0.007922853
0.01679366 0.034236785 -0.040612556 -0.0062191524 -0.025491267 0.008855873 0.017614052 -0.026016036
0.020749107 0.01967937 -0.0024965284 -0.013028799 -0.0016552855 0.0073555945 0.010758424 0.0021813035
0.023842636 -0.011873867 -0.026653018 -0.035342168 -0.022265665 0.028193308 0.0052411696 -0.015262364

weight f4 [64, 1024]
00000000: 2ebf 9abc a0a1 a23c 345c 0a3c f347 aebc
00000010: ef53 d23c f144 84bb dcc2 02bc 24cb d0bc
00000020: 18cb 363c 89b2 043d 35d6 873a 5bac cebc
00000030: 9f80 fb3c c4aa c1ba 2f7f 1a3b 8cae c73c
00000040: 93dc 50bc 3f58 393c e359 77bc a02a b73c
00000050: 087a ad3c d5f2 79bc 6fba 9ebc 8834 89bc
00000060: 1289 ccbc 18a0 bf3c 8bcd a9bc a1f5 ddbc
00000070: 8819 d53c 6c1d 963c e644 aa3c 0fa4 03bd
00000080: f71b a03c 6714 c73b 97cc aebc 5f7d 77bb
00000090: 40b4 85ba e3a8 0f3c 78f8 e13c 7189 23bb
000000a0: 7419 ae3c fda4 683c 40ab 8c3c 80bd 0d3c
000000b0: 6923 e13c e6c5 8a3c 3935 663c 2e7d cdbc
000000c0: b401 dcbb 9df8 ddba 8bd6 b53c 4dff b4b9
000000d0: c484 2cbc a814 11bb bcc0 d63b 91f9 1d3c
000000e0: 331a 9abc 9c51 d1bc ae8f f73c cfd5 c0bc
000000f0: edc3 a8bc d891 d13c 4144 913c 8e1f 083d
00000100: bf94 a4bc 633a 5bbc faf7 fb3b 93e5 73ba
00000110: acec 083d f947 dcbc 1482 97bc 6ee9 c2bc
00000120: af83 1abd 090d c83b beeb afbc f3aa 863b
00000130: 951b 513c cd0f aa3b a79c 06bd 704e 03bd
00000140: 83c3 cb3b 270f 363c 4c4a e23b 9c31 cb3a
00000150: 1767 5f3c 94be a53c 857d 81bc 4e07 bbbc
00000160: e816 21bc 10ed 32bc 8741 183c 185d 81bb
00000170: 111d df3c 80a1 e33c 6a0c 3f3b 6363 13bc
00000180: 0f6a 3cbc 8437 de3b 4e6f 273b 7c91 efbc
00000190: 0df4 e1bc 0938 a4bc 88db dfbc 69a2 a13c
000001a0: ba18 503c 4b81 833c 0509 ddbc 3920 5eba
000001b0: f6ae b23b 52a2 f7bc 9ef6 2e3c d5c3 fbbb
000001c0: 698f adbc c6c0 a03b 3c68 96bb bec7 2cbc
000001d0: 128a d7bb cfcf 87bc 9841 213b b29b 87bc
000001e0: 05af a23b 73f9 10bd ac12 633c d24b 303c
000001f0: b94e 8b3c b65b 1e3d 92f1 c33c 1f51 6cbc
00000200: b2ed 833c 7056 073d a681 7b3c 8b17 093d
00000210: 0665 b2bc dcae 1abc 74ca ca3c 2e05 8d3c
00000220: c307 973c 5cfc 043c db09 2e3c 2204 bb3c
00000230: 8bab 743b cc57 cd3b 3696 88bc cbf5 173c
00000240: 4975 9e3c 1bfa bd3b 0f1e bd3c 3dbe 503a
00000250: 9ddc 9cbc ede1 c5bc c3ff 20bc 2d00 253b
00000260: 5fe6 13bc d6bf 0b3d ce7d 0f3c b62e 493c
00000270: 6f11 7a3c b8de 16bb 9649 a3bc 0ec1 e23c
00000280: f564 843b 4f67 753c 46cd 36bc 8719 5f3c
00000290: 3291 ec39 f144 75bc 817b f33c ec5c 723c
000002a0: c18f 493b a60c 253c 1e86 5b3c 2f3e 95bc
000002b0: 32f8 82bc 8693 75bb 8f82 85bc f257 513c
000002c0: 5d2e 853c 61a7 f3bb d980 813c 4a84 34bc
000002d0: 87ad 9b3c 0edf d33c 1aef d03c 383f edbc
000002e0: 7781 f13c 8589 963b 95e3 f63c 57e8 a1bc
000002f0: 9c10 3a3c 81f6 14bd b99d b43a 135d b93a
00000300: 0678 babc efee aabc b463 3d3c 394d 423c
00000310: ac27 f6bc bc2f c63b e1e9 c4bc 51f0 153a
00000320: 1ef4 52bb 13b8 50bb 7abd 993c 8a2c 03bc
00000330: 1f86 4d3b e9f7 78b9 bdfe a83b cef2 70bc
00000340: 855d b63c 15eb a8bc adbe 4dbc 93c4 fb3c
00000350: e20b b5bc 5487 b6bb ff77 1fbc 2011 03bc
00000360: 0fc7 74bb 98fe ac3c d494 9f3c f02f 473c
00000370: 5b01 7dbc 502a d6bc 39d0 ffbc 9d87 c53b
00000380: e405 71bb e416 923c 2d11 bf3c 16c1 ddbc
00000390: 2762 763c ae53 0dbc 47e3 033d 5c05 923c
000003a0: cbe5 b83c 96e6 c43c 4753 e7bb 309d 173d
000003b0: 5423 8b3c 7914 983a 4ef4 f8bb bc91 95bc
000003c0: 2a42 e7bc c298 c5bc 0f19 96bc 53c5 7b3c
000003d0: 13a1 67bc 5030 4ebc 3a51 06bc 859c d03c
000003e0: e462 833c 7b69 db3b 6495 5739 447f 1c3c
000003f0: 2753 0b3c 12e5 82bc 1aa0 403c 0208 763c
-0.01888999 0.01985246 0.0084448345 -0.021274542 0.025674788 -0.004036539 -0.007981028 -0.02548749
0.01115682 0.032396827 0.0010363521 -0.02522867 0.03070098 -0.0014775624 0.0023574342 0.024375223
-0.0127479015 0.011312543 -0.015097114 0.022359192 0.021176353 -0.01525565 -0.019376008 -0.016748682
-0.024967704 0.023391768 -0.020727893 -0.027094664 0.02601315 0.018324576 0.020784806 -0.03213888
0.019544585 0.00607543 -0.02133779 -0.0037763936 -0.0010200813 0.008768293 0.0275843 -0.0024953748
0.021252371 0.0141994925 0.017171502 0.008651137 0.027482705 0.016940068 0.014050775 -0.025084104
-0.00671407 -0.0016935054 0.022197029 -0.0003452249 -0.010529701 -0.0022137556 0.0065537374 0.009642021
-0.01881132 -0.02555161 0.030219879 -0.023539452 -0.020601237 0.025582239 0.017732741 0.033233218
-0.020090459 -0.01338062 0.007689473 -0.00093039236 0.033428833 -0.026889788 -0.018494643 -0.023792949
-0.03772324 0.0061050695 -0.021474715 0.004109734 0.012762924 0.005189872 -0.03286424 -0.032057226
0.006218375 0.011112011 0.0069058295 0.0015502456 0.013635418 0.020232476 -0.015806923 -0.022830632
-0.009832121 -0.010920778 0.009292967 -0.003947865 0.02723554 0.02778697 0.0029151686 -0.008995864
-0.011499896 0.0067815203 0.002554852 -0.029244177 -0.027582193 -0.02004625 -0.02732636 0.019730764
0.012701208 0.016052863 -0.02698184 -0.00084734295 0.005452986 -0.030228768 0.010678915 -0.007683257
-0.021186547 0.004905793 -0.0045900624 -0.010545669 -0.0065777386 -0.016578583 0.0024605747 -0.016553733
0.0049647116 -0.035394143 0.013859432 0.0107602645 0.017005311 0.03866168 0.0239189 -0.014423638
0.016104553 0.033041418 0.015350735 0.033469718 -0.021776687 -0.009441104 0.02475474 0.017214384
0.018436318 0.008116808 0.010622467 0.02282912 0.0037333693 0.0062665697 -0.016673189 0.00927491
0.019343035 0.005797637 0.023085622 0.0007962918 -0.019148165 -0.024155581 -0.009826603 0.0025177107
-0.009027093 0.034118496 0.0087580215 0.012279203 0.015262946 -0.0023020934 -0.01993255 0.027679946
0.0040403553 0.014978244 -0.011157339 0.013616926 0.00045121607 -0.01497005 0.029721977 0.014792662
0.003075585 0.010073816 0.013398675 -0.018218128 -0.01598749 -0.0037471964 -0.016297607 0.012777315
0.01625746 -0.0074357246 0.01580851 -0.011017868 0.019003643 0.025863197 0.025504638 -0.02896081
0.029480679 0.0045940303 0.030137816 -0.019764109 0.011356499 -0.036367897 0.0013779915 0.0014142118
-0.02276231 -0.020865886 0.011559416 0.011859232 -0.030048214 0.006048171 -0.024037303 0.0005719709
-0.0032188962 -0.0031847998 0.018767107 -0.008006224 0.003136046 -0.00023743477 0.0051573203 -0.014706327
0.02226139 -0.020619908 -0.012557668 0.030733382 -0.022100393 -0.0055703316 -0.009733199 -0.007999688
-0.0037350093 0.021117494 0.019480146 0.012157425 -0.015442218 -0.026143223 -0.031227218 0.0060281293
-0.0036777193 0.01783318 0.02332362 -0.02706961 0.01503805 -0.008625908 0.03219917 0.017824821
0.022570511 0.024035733 -0.007059488 0.03701514 0.01698462 0.0011602781 -0.0075974828 -0.018257968
-0.028229792 -0.024120692 -0.018322496 0.01536687 -0.014137524 -0.012584761 -0.008198077 0.02546526
0.016038366 0.006695924 0.0002055965 0.009551827 0.008503712 -0.01597837 0.011756921 0.015016558

bias f4 [64]
00000000: 4c66 e7bb c2ff 473c 7259 7a3c d356 d4bc
00000010: d5b1 643c 66ae 89bc 6686 8c3a e9dc f0bb
00000020: e5bd d9bb 327d 1d3d 623e 0f3d 2227 c53b
00000030: 396c bf3c 2ff4 d53b a009 0a3d 8ddb e7bb
00000040: ea8b 0e3d fb67 63bb 7c53 b7bc db71 cfbb
00000050: fbbc ed3c 3928 22bd 73de d63c 2b7d 56bc
00000060: 4cc6 93bc fad1 9e3c c271 b2ba b5d1 3bbc
00000070: 77f8 22bd 2090 d33c 5503 d7bc 5233 093d
00000080: b73d bc3c 155d 613c 8c46 d43b 9aa6 fd3c
00000090: 2f4e 50bc 6b6f 5fbc 9e20 9a3c 003f 09bd
000000a0: b099 f0bc 049e 68bc 438f 1ebd f6e1 16bc
000000b0: 6565 00bc b4ca b5b9 165f 0bbc ce31 0b3d
000000c0: f26a febb 37a7 ea3c e092 ca3c 5498 98bc
000000d0: 8660 b73b a135 043c b626 9c3b 8895 cebb
000000e0: 6cf9 3bbb 8ec9 a03c 8004 d1bc b4c6 4bbc
000000f0: e896 0bbd d23e debc 70b3 bc3b b06f 9a3c
-0.0070617553 0.0122069735 0.0152801145 -0.025920307 0.013958414 -0.016806792 0.0010721206 -0.0073505533
-0.0066449516 0.038449474 0.034971602 0.006016628 0.023367034 0.006529353 0.033700585 -0.007075733
0.0348014 -0.0034699428 -0.022378676 -0.0063307113 0.029020777 -0.03958914 0.026229119 -0.013091366
-0.018038891 0.019387234 -0.0013614225 -0.011463572 -0.039787736 0.02582556 -0.026246706 0.03349621
0.022978647 0.013755103 0.0064781364 0.03096323 -0.012713953 -0.013637404 0.018814381 -0.033507347
-0.029370159 -0.01419783 -0.038710844 -0.009209147 -0.007836674 -0.00034674036 -0.008506557 0.033983044
-0.0077642137 0.028644187 0.024728239 -0.018627323 0.0055962233 0.008069427 0.004765357 -0.0063044466
-0.0028682603 0.019627359 -0.025514841 -0.012437511 -0.034079462 -0.027129564 0.0057586953 0.018852085

weight f4 [11, 64]
00000000: 7081 15be 995c e6bd 0c1c eb3d 3adc 2c3c
00000010: 5981 4dbd 8102 a63d 6c24 2ebd 65f9 00be
00000020: d6de efbd 1106 c9bb cc42 8e3c 5d4d d5bd
00000030: f674 833d 17c1 073c 46da a3bd 4eec 1a3e
00000040: e453 c4bc d438 a63c 851a c7bb 93f7 093e
00000050: 57fb c0bd a687 1ebd 8ba5 debc eac0 8ebd
00000060: a4b9 7c3d b26d d6bd 38ff 693d c50a 233e
00000070: 9ca6 0c3e d727 5cbd 3c7d e4bd 2e37 aebc
00000080: b463 483d 3155 68bd a786 5f3d bb9d 233d
00000090: c8c8 9a3d a5d3 023d 63d4 7abd 63cb 3f3e
000000a0: 332a 3b3d b405 143e 91ff 293d 998f b3bd
000000b0: f5e1 62bd d557 db3d 3156 ab3d 9421 c7bd
000000c0: b933 babc 5173 193d 4597 80bc e4ef 8b3d
000000d0: 9553 07be 5a76 a33d 9cb7 83bd f3cb 1a3e
000000e0: 6dd2 95bd 1cab b4bd 3b98 df3d 9b1b 153e
000000f0: 415c 10bc a465 e93c 7b65 0abe 8ba1 0abd
00000100: 1600 df3d 94ba f33d 31fd ddbb d585 c3bd
00000110: 2eb1 9b3c 06c5 cbbb 9993 b73d 6968 cebb
00000120: a5fa 203e 8004 11be c2a1 643c 1ddb 1f3e
00000130: d4e2 99bd c188 223e cb8f eabd fa1e fa3c
00000140: 8f87 5cbc 7224 053e 0dbc 2d3c 877e aebd
00000150: 53ea a33b ee7b 423a 655c c63d 675c 8d3d
00000160: 6589 d0bc 910e 133e 345d 3a3e 0644 153d
00000170: 3029 f33d 7ee0 38bd 0a8c 043e 9689 a43d
00000180: 5687 d43d 056b d1bd 923f 36be f8d7 c73d
00000190: ee0d 063e df68 0b3e 5eae 89bd fc0a 1bbe
000001a0: 4dd6 cbbc d3de 3ebc 71a2 a53d 07c8 a13d
000001b0: 0c79 0b3e 2f56 c83d e608 063d e8c0 8f3d
000001c0: 8037 4cbd ef56 d3ba 5d7b 77bc 83c1 1fbe
000001d0: 63d2 3bbc 698e c7ba cd15 6fbd 84c8 af3d
000001e0: 41dc 963c 3bd0 a7bd 3f79 adbc ec14 34bd
000001f0: f421 a93d 9abf fc3d aac0 973d 2da0 c53d
00000200: bc80 04bc 075c d0bc 5077 413d 325c 8a3d
00000210: 229a e0bc 5961 b6bc 4fe4 0abe 513a e83d
00000220: 5d46 b53d c179 c1bd a130 afbd 1db5 853d
00000230: 3438 a1bd ef99 a13d 264f 103e fb86 933c
00000240: 5469 33bd 1af9 573d 282d bf3d 8e2b 383c
00000250: 4b3c a83d bd13 d7bd ddf8 f83d b9ae 8a3d
00000260: b0ad 8c3d a9f2 c33d f639 463e 4b9a 2abe
00000270: 316c 0abe d8ae 043e 5e58 b7bd df66 e43d
00000280: 686f d03d 5745 8ebc e0ea acbd e8e5 90bd
00000290: 6464 3c3d 7a2c f73d d607 39be 6139 c3bd
000002a0: 84f0 e83c 3e26 28be bb3d 4f3d 255e 14bc
000002b0: abf2 2b3e 0d85 53bd 4947 4fbd a979 dbbd
000002c0: df36 6c3d 297e f8bd f595 3ebd 075c da3d
000002d0: 1681 ab3d 1373 dbbd 4c92 163e 7bcd 22be
000002e0: ffcc c43d 0035 fcbc dc66 f63d ddef 3d3d
000002f0: 9b27 e7bd 41b7 ac3c dc2c f03d a89d 063e
00000300: fb35 5cbd 3ece 193c 3ef0 c7bd 1e4f 18bd
00000310: dae7 ff3c 4ba4 523e bd9f 333c 1e9e b03d
00000320: 97aa 82bd a9bf c8bd febc 4c3d d257 de3d
00000330: 6993 333e 5a34 6a3d 486f 67bd 748f 2abe
00000340: d9e2 013e 430c c03c 94c9 7ebd a4cf 42be
00000350: c1c3 56bc e7cc 203d afbf 163e 2ff1 eb3b
00000360: 35b6 173e 4fe2 0dbe aa05 583b 5b72 0a3d
00000370: af19 ec3d b7d1 f3bc c810 bb3d c66c 02be
00000380: dc08 b2bc eb10 90bc d9b8 ddbc ea0b 5ebd
00000390: db5c 1dbe 117e de3d 54c8 2f3d 6a20 89bd
000003a0: 26ca bf3d 39f7 dbbd 89b7 11be 0298 89bd
000003b0: aba7 2a3d 5a99 90bc f6eb f23c a2f9 92bd
000003c0: 3bb7 063c 1ec5 69bd b7db 8fbd 91be c7bd
000003d0: 660c 01be 9c92 033d 097c 73bd 7b85 2cbd
000003e0: c525 873d c3cd d1bd b7a7 143e a2b6 9d3d
000003f0: 0c4e e23d f8cc 24bd 07cf b63d fb41 833d
-0.14600158 -0.1124813 0.11479959 0.010550553 -0.050172184 0.08105946 -0.042515203 -0.12595136
-0.117124245 -0.0061347564 0.017365836 -0.104151465 0.06418793 0.008285782 -0.08000617 0.15129206
-0.023965783 0.02029077 -0.0060761594 0.13473348 -0.09422939 -0.038703583 -0.027178546 -0.06970389
0.06170048 -0.104701415 0.05712816 0.15922077 0.13735431 -0.05374893 -0.11156699 -0.021266546
0.04892321 -0.05672187 0.054571774 0.039945345 0.07557827 0.03194012 -0.061237704 0.1872993
0.04569454 0.144553 0.041503493 -0.087676235 -0.05539127 0.10710112 0.08366049 -0.097232014
-0.022729741 0.03746349 -0.015697131 0.06832865 -0.13215478 0.07981558 -0.06431505 0.15116863
-0.07315526 -0.08821699 0.109177075 0.14561312 -0.008811058 0.028490849 -0.13515274 -0.033845466
0.10888688 0.11900821 -0.0067745675 -0.09547011 0.019005384 -0.0062185554 0.08963699 -0.0062990678
0.15720613 -0.14161873 0.013954582 0.15610929 -0.07513967 0.1587248 -0.114532076 0.030532349
-0.013460054 0.13002184 0.010603917 -0.08520227 0.005002299 0.00074189797 0.096855916 0.0690239
-0.02545614 0.14361025 0.18199617 0.036441825 0.1187309 -0.045135967 0.12944046 0.08034055
0.10377376 -0.102254905 -0.17797688 0.0975799 0.13091251 0.13614224 -0.06722711 -0.15140909
-0.02488246 -0.011649805 0.08087624 0.0789948 0.13620394 0.09782063 0.03272333 0.07019216
-0.049857616 -0.0016123931 -0.015105096 -0.15601163 -0.011463734 -0.0015224937 -0.0583704 0.08583167
0.018415572 -0.08194014 -0.021175979 -0.043965265 0.08258429 0.123412326 0.07409795 0.09649692
-0.008087333 -0.025434507 0.047232926 0.06755866 -0.027417246 -0.022263216 -0.13563655 0.11339248
0.08851311 -0.09447051 -0.08554197 0.06528685 -0.07872048 0.07890689 0.14092693 0.0180087
-0.04380162 0.052727796 0.09334785 0.011240853 0.08214625 -0.10501812 0.12156842 0.06771607
0.06869066 0.09567768 0.19358048 -0.1666042 -0.13517834 0.12957323 -0.089524016 0.111524336
0.10177499 -0.017367048 -0.08443236 -0.07075101 0.045994177 0.1206903 -0.18069395 -0.095324285
0.028435 -0.16420838 0.05059598 -0.009055649 0.16791789 -0.05164056 -0.050605092 -0.10716564
0.057669517 -0.12133438 -0.04652973 0.10662084 0.083742306 -0.10715308 0.14704245 -0.15898697
0.096094124 -0.030786991 0.120313376 0.04637133 -0.11286851 0.021083476 0.11727306 0.13146079
-0.053762417 0.009387551 -0.097626194 -0.037184827 0.031238485 0.20570485 0.010963378 0.086239085
-0.06380194 -0.09802181 0.049984924 0.10856594 0.17536701 0.057178833 -0.05650261 -0.16656286
0.12684192 0.023443347 -0.06220396 -0.19024521 -0.013108195 0.03925791 0.14721559 0.007200382
0.148156 -0.13855861 0.003296236 0.033800464 0.11528336 -0.029763086 0.0913406 -0.12736806
-0.02173274 -0.017586192 -0.027065681 -0.05421058 -0.15367453 0.10863889 0.042915657 -0.066956356
0.09364729 -0.10740513 -0.1423017 -0.06718446 0.041663807 -0.017651249 0.02965353 -0.0717652
0.0082223965 -0.05707275 -0.07024329 -0.097531445 -0.12602386 0.03212224 -0.05944446 -0.042119484
0.06599001 -0.10244324 0.14517103 0.0770085 0.110500425 -0.040234536 0.08926206 0.06409069

bias f4 [11]
00000000: 9729 19be 2cb6 ba3d 59d7 8e3d 7fd2 c1bd
00000010: a9e3 8f3c bd3a c4bc 3e17 d4bd dd21 a1bd
00000020: 7802 c73c 4eaf c93b fd14 fbbb
-0.14957272 0.09116778 0.06974668 -0.09463977 0.017564612 -0.02395379 -0.103559956 -0.07867787
0.02429317 0.006154931 -0.007662414
